…
2021-06-29 10:36:13 - 14092 - _initialize_weights - 190: - init upsamle layer upsample_2.weight 
2021-06-29 10:36:13 - 14092 - _initialize_weights - 190: - init upsamle layer upsample_4.weight 
2021-06-29 10:36:13 - 14092 - _initialize_weights - 190: - init upsamle layer upsample_8.weight 
2021-06-29 10:36:13 - 14092 - _initialize_weights - 190: - init upsamle layer upsample_8_5.weight 
2021-06-29 10:36:13 - 14092 - _initialize_weights - 195: - init params fuse.weight 
2021-06-29 10:36:13 - 14092 - _initialize_weights - 195: - init params fuse.bias 
2021-06-29 10:36:13 - 14092 - main - 183: - BDCN(
  (features): VGG16_C(
    (conv1_1): Conv2d(3, 64, kernel_size=(3, 3), stride=(1, 1), padding=(1, 1))
    (relu1_1): ReLU(inplace=True)
    (conv1_2): Conv2d(64, 64, kernel_size=(3, 3), stride=(1, 1), padding=(1, 1))
    (relu1_2): ReLU(inplace=True)
    (pool1): MaxPool2d(kernel_size=2, stride=2, padding=0, dilation=1, ceil_mode=True)
    (conv2_1): Conv2d(64, 128, kernel_size=(3, 3), stride=(1, 1), padding=(1, 1))
    (relu2_1): ReLU(inplace=True)
    (conv2_2): Conv2d(128, 128, kernel_size=(3, 3), stride=(1, 1), padding=(1, 1))
    (relu2_2): ReLU(inplace=True)
    (pool2): MaxPool2d(kernel_size=2, stride=2, padding=0, dilation=1, ceil_mode=True)
    (conv3_1): Conv2d(128, 256, kernel_size=(3, 3), stride=(1, 1), padding=(1, 1))
    (relu3_1): ReLU(inplace=True)
    (conv3_2): Conv2d(256, 256, kernel_size=(3, 3), stride=(1, 1), padding=(1, 1))
    (relu3_2): ReLU(inplace=True)
    (conv3_3): Conv2d(256, 256, kernel_size=(3, 3), stride=(1, 1), padding=(1, 1))
    (relu3_3): ReLU(inplace=True)
    (pool3): MaxPool2d(kernel_size=2, stride=2, padding=0, dilation=1, ceil_mode=True)
    (conv4_1): Conv2d(256, 512, kernel_size=(3, 3), stride=(1, 1), padding=(1, 1))
    (relu4_1): ReLU(inplace=True)
    (conv4_2): Conv2d(512, 512, kernel_size=(3, 3), stride=(1, 1), padding=(1, 1))
    (relu4_2): ReLU(inplace=True)
    (conv4_3): Conv2d(512, 512, kernel_size=(3, 3), stride=(1, 1), padding=(1, 1))
    (relu4_3): ReLU(inplace=True)
    (pool4): MaxPool2d(kernel_size=2, stride=1, padding=0, dilation=1, ceil_mode=True)
    (conv5_1): Conv2d(512, 512, kernel_size=(3, 3), stride=(1, 1), padding=(2, 2), dilation=(2, 2))
    (relu5_1): ReLU(inplace=True)
    (conv5_2): Conv2d(512, 512, kernel_size=(3, 3), stride=(1, 1), padding=(2, 2), dilation=(2, 2))
    (relu5_2): ReLU(inplace=True)
    (conv5_3): Conv2d(512, 512, kernel_size=(3, 3), stride=(1, 1), padding=(2, 2), dilation=(2, 2))
    (relu5_3): ReLU(inplace=True)
  )
  (msblock1_1): MSBlock(
    (conv): Conv2d(64, 32, kernel_size=(3, 3), stride=(1, 1), padding=(1, 1))
    (relu): ReLU(inplace=True)
    (conv1): Conv2d(32, 32, kernel_size=(3, 3), stride=(1, 1), padding=(4, 4), dilation=(4, 4))
    (relu1): ReLU(inplace=True)
    (conv2): Conv2d(32, 32, kernel_size=(3, 3), stride=(1, 1), padding=(8, 8), dilation=(8, 8))
    (relu2): ReLU(inplace=True)
    (conv3): Conv2d(32, 32, kernel_size=(3, 3), stride=(1, 1), padding=(12, 12), dilation=(12, 12))
    (relu3): ReLU(inplace=True)
  )
  (msblock1_2): MSBlock(
    (conv): Conv2d(64, 32, kernel_size=(3, 3), stride=(1, 1), padding=(1, 1))
    (relu): ReLU(inplace=True)
    (conv1): Conv2d(32, 32, kernel_size=(3, 3), stride=(1, 1), padding=(4, 4), dilation=(4, 4))
    (relu1): ReLU(inplace=True)
    (conv2): Conv2d(32, 32, kernel_size=(3, 3), stride=(1, 1), padding=(8, 8), dilation=(8, 8))
    (relu2): ReLU(inplace=True)
    (conv3): Conv2d(32, 32, kernel_size=(3, 3), stride=(1, 1), padding=(12, 12), dilation=(12, 12))
    (relu3): ReLU(inplace=True)
  )
  (conv1_1_down): Conv2d(32, 21, kernel_size=(1, 1), stride=(1, 1))
  (conv1_2_down): Conv2d(32, 21, kernel_size=(1, 1), stride=(1, 1))
  (score_dsn1): Conv2d(21, 1, kernel_size=(1, 1), stride=(1, 1))
  (score_dsn1_1): Conv2d(21, 1, kernel_size=(1, 1), stride=(1, 1))
  (msblock2_1): MSBlock(
    (conv): Conv2d(128, 32, kernel_size=(3, 3), stride=(1, 1), padding=(1, 1))
    (relu): ReLU(inplace=True)
    (conv1): Conv2d(32, 32, kernel_size=(3, 3), stride=(1, 1), padding=(4, 4), dilation=(4, 4))
    (relu1): ReLU(inplace=True)
    (conv2): Conv2d(32, 32, kernel_size=(3, 3), stride=(1, 1), padding=(8, 8), dilation=(8, 8))
    (relu2): ReLU(inplace=True)
    (conv3): Conv2d(32, 32, kernel_size=(3, 3), stride=(1, 1), padding=(12, 12), dilation=(12, 12))
    (relu3): ReLU(inplace=True)
  )
  (msblock2_2): MSBlock(
    (conv): Conv2d(128, 32, kernel_size=(3, 3), stride=(1, 1), padding=(1, 1))
    (relu): ReLU(inplace=True)
    (conv1): Conv2d(32, 32, kernel_size=(3, 3), stride=(1, 1), padding=(4, 4), dilation=(4, 4))
    (relu1): ReLU(inplace=True)
    (conv2): Conv2d(32, 32, kernel_size=(3, 3), stride=(1, 1), padding=(8, 8), dilation=(8, 8))
    (relu2): ReLU(inplace=True)
    (conv3): Conv2d(32, 32, kernel_size=(3, 3), stride=(1, 1), padding=(12, 12), dilation=(12, 12))
    (relu3): ReLU(inplace=True)
  )
  (conv2_1_down): Conv2d(32, 21, kernel_size=(1, 1), stride=(1, 1))
  (conv2_2_down): Conv2d(32, 21, kernel_size=(1, 1), stride=(1, 1))
  (score_dsn2): Conv2d(21, 1, kernel_size=(1, 1), stride=(1, 1))
  (score_dsn2_1): Conv2d(21, 1, kernel_size=(1, 1), stride=(1, 1))
  (msblock3_1): MSBlock(
    (conv): Conv2d(256, 32, kernel_size=(3, 3), stride=(1, 1), padding=(1, 1))
    (relu): ReLU(inplace=True)
    (conv1): Conv2d(32, 32, kernel_size=(3, 3), stride=(1, 1), padding=(4, 4), dilation=(4, 4))
    (relu1): ReLU(inplace=True)
    (conv2): Conv2d(32, 32, kernel_size=(3, 3), stride=(1, 1), padding=(8, 8), dilation=(8, 8))
    (relu2): ReLU(inplace=True)
    (conv3): Conv2d(32, 32, kernel_size=(3, 3), stride=(1, 1), padding=(12, 12), dilation=(12, 12))
    (relu3): ReLU(inplace=True)
  )
  (msblock3_2): MSBlock(
    (conv): Conv2d(256, 32, kernel_size=(3, 3), stride=(1, 1), padding=(1, 1))
    (relu): ReLU(inplace=True)
    (conv1): Conv2d(32, 32, kernel_size=(3, 3), stride=(1, 1), padding=(4, 4), dilation=(4, 4))
    (relu1): ReLU(inplace=True)
    (conv2): Conv2d(32, 32, kernel_size=(3, 3), stride=(1, 1), padding=(8, 8), dilation=(8, 8))
    (relu2): ReLU(inplace=True)
    (conv3): Conv2d(32, 32, kernel_size=(3, 3), stride=(1, 1), padding=(12, 12), dilation=(12, 12))
    (relu3): ReLU(inplace=True)
  )
  (msblock3_3): MSBlock(
    (conv): Conv2d(256, 32, kernel_size=(3, 3), stride=(1, 1), padding=(1, 1))
    (relu): ReLU(inplace=True)
    (conv1): Conv2d(32, 32, kernel_size=(3, 3), stride=(1, 1), padding=(4, 4), dilation=(4, 4))
    (relu1): ReLU(inplace=True)
    (conv2): Conv2d(32, 32, kernel_size=(3, 3), stride=(1, 1), padding=(8, 8), dilation=(8, 8))
    (relu2): ReLU(inplace=True)
    (conv3): Conv2d(32, 32, kernel_size=(3, 3), stride=(1, 1), padding=(12, 12), dilation=(12, 12))
    (relu3): ReLU(inplace=True)
  )
  (conv3_1_down): Conv2d(32, 21, kernel_size=(1, 1), stride=(1, 1))
  (conv3_2_down): Conv2d(32, 21, kernel_size=(1, 1), stride=(1, 1))
  (conv3_3_down): Conv2d(32, 21, kernel_size=(1, 1), stride=(1, 1))
  (score_dsn3): Conv2d(21, 1, kernel_size=(1, 1), stride=(1, 1))
  (score_dsn3_1): Conv2d(21, 1, kernel_size=(1, 1), stride=(1, 1))
  (msblock4_1): MSBlock(
    (conv): Conv2d(512, 32, kernel_size=(3, 3), stride=(1, 1), padding=(1, 1))
    (relu): ReLU(inplace=True)
    (conv1): Conv2d(32, 32, kernel_size=(3, 3), stride=(1, 1), padding=(4, 4), dilation=(4, 4))
    (relu1): ReLU(inplace=True)
    (conv2): Conv2d(32, 32, kernel_size=(3, 3), stride=(1, 1), padding=(8, 8), dilation=(8, 8))
    (relu2): ReLU(inplace=True)
    (conv3): Conv2d(32, 32, kernel_size=(3, 3), stride=(1, 1), padding=(12, 12), dilation=(12, 12))
    (relu3): ReLU(inplace=True)
  )
  (msblock4_2): MSBlock(
    (conv): Conv2d(512, 32, kernel_size=(3, 3), stride=(1, 1), padding=(1, 1))
    (relu): ReLU(inplace=True)
    (conv1): Conv2d(32, 32, kernel_size=(3, 3), stride=(1, 1), padding=(4, 4), dilation=(4, 4))
    (relu1): ReLU(inplace=True)
    (conv2): Conv2d(32, 32, kernel_size=(3, 3), stride=(1, 1), padding=(8, 8), dilation=(8, 8))
    (relu2): ReLU(inplace=True)
    (conv3): Conv2d(32, 32, kernel_size=(3, 3), stride=(1, 1), padding=(12, 12), dilation=(12, 12))
    (relu3): ReLU(inplace=True)
  )
  (msblock4_3): MSBlock(
    (conv): Conv2d(512, 32, kernel_size=(3, 3), stride=(1, 1), padding=(1, 1))
    (relu): ReLU(inplace=True)
    (conv1): Conv2d(32, 32, kernel_size=(3, 3), stride=(1, 1), padding=(4, 4), dilation=(4, 4))
    (relu1): ReLU(inplace=True)
    (conv2): Conv2d(32, 32, kernel_size=(3, 3), stride=(1, 1), padding=(8, 8), dilation=(8, 8))
    (relu2): ReLU(inplace=True)
    (conv3): Conv2d(32, 32, kernel_size=(3, 3), stride=(1, 1), padding=(12, 12), dilation=(12, 12))
    (relu3): ReLU(inplace=True)
  )
  (conv4_1_down): Conv2d(32, 21, kernel_size=(1, 1), stride=(1, 1))
  (conv4_2_down): Conv2d(32, 21, kernel_size=(1, 1), stride=(1, 1))
  (conv4_3_down): Conv2d(32, 21, kernel_size=(1, 1), stride=(1, 1))
  (score_dsn4): Conv2d(21, 1, kernel_size=(1, 1), stride=(1, 1))
  (score_dsn4_1): Conv2d(21, 1, kernel_size=(1, 1), stride=(1, 1))
  (msblock5_1): MSBlock(
    (conv): Conv2d(512, 32, kernel_size=(3, 3), stride=(1, 1), padding=(1, 1))
    (relu): ReLU(inplace=True)
    (conv1): Conv2d(32, 32, kernel_size=(3, 3), stride=(1, 1), padding=(4, 4), dilation=(4, 4))
    (relu1): ReLU(inplace=True)
    (conv2): Conv2d(32, 32, kernel_size=(3, 3), stride=(1, 1), padding=(8, 8), dilation=(8, 8))
    (relu2): ReLU(inplace=True)
    (conv3): Conv2d(32, 32, kernel_size=(3, 3), stride=(1, 1), padding=(12, 12), dilation=(12, 12))
    (relu3): ReLU(inplace=True)
  )
  (msblock5_2): MSBlock(
    (conv): Conv2d(512, 32, kernel_size=(3, 3), stride=(1, 1), padding=(1, 1))
    (relu): ReLU(inplace=True)
    (conv1): Conv2d(32, 32, kernel_size=(3, 3), stride=(1, 1), padding=(4, 4), dilation=(4, 4))
    (relu1): ReLU(inplace=True)
    (conv2): Conv2d(32, 32, kernel_size=(3, 3), stride=(1, 1), padding=(8, 8), dilation=(8, 8))
    (relu2): ReLU(inplace=True)
    (conv3): Conv2d(32, 32, kernel_size=(3, 3), stride=(1, 1), padding=(12, 12), dilation=(12, 12))
    (relu3): ReLU(inplace=True)
  )
  (msblock5_3): MSBlock(
    (conv): Conv2d(512, 32, kernel_size=(3, 3), stride=(1, 1), padding=(1, 1))
    (relu): ReLU(inplace=True)
    (conv1): Conv2d(32, 32, kernel_size=(3, 3), stride=(1, 1), padding=(4, 4), dilation=(4, 4))
    (relu1): ReLU(inplace=True)
    (conv2): Conv2d(32, 32, kernel_size=(3, 3), stride=(1, 1), padding=(8, 8), dilation=(8, 8))
    (relu2): ReLU(inplace=True)
    (conv3): Conv2d(32, 32, kernel_size=(3, 3), stride=(1, 1), padding=(12, 12), dilation=(12, 12))
    (relu3): ReLU(inplace=True)
  )
  (conv5_1_down): Conv2d(32, 21, kernel_size=(1, 1), stride=(1, 1))
  (conv5_2_down): Conv2d(32, 21, kernel_size=(1, 1), stride=(1, 1))
  (conv5_3_down): Conv2d(32, 21, kernel_size=(1, 1), stride=(1, 1))
  (score_dsn5): Conv2d(21, 1, kernel_size=(1, 1), stride=(1, 1))
  (score_dsn5_1): Conv2d(21, 1, kernel_size=(1, 1), stride=(1, 1))
  (upsample_2): ConvTranspose2d(1, 1, kernel_size=(4, 4), stride=(2, 2), bias=False)
  (upsample_4): ConvTranspose2d(1, 1, kernel_size=(8, 8), stride=(4, 4), bias=False)
  (upsample_8): ConvTranspose2d(1, 1, kernel_size=(16, 16), stride=(8, 8), bias=False)
  (upsample_8_5): ConvTranspose2d(1, 1, kernel_size=(16, 16), stride=(8, 8), bias=False)
  (fuse): Conv2d(10, 1, kernel_size=(1, 1), stride=(1, 1))
)
2021-06-29 10:36:17 - 14092 - train - 110: - ****************************************
2021-06-29 10:36:17 - 14092 - train - 111: - train images in all are 28800 
2021-06-29 10:36:17 - 14092 - train - 112: - ****************************************
2021-06-29 10:36:17 - 14092 - train - 115: - features.conv1_1.weight: 1e-06
2021-06-29 10:36:17 - 14092 - train - 115: - features.conv1_1.bias: 2e-06
…
